Data/mlp_model.pth (torch, 88295 bytes, 6 tensors)

hidden1.weight f4 [128, 96]
00000000: 9a02 53bd 3d38 a2bd bbee af3d 2aae 9c3d
00000010: 44ac f93a 7b31 5cb8 f012 9bbc 37b9 2bbc
00000020: 2595 3bbd b378 16bc afb3 ba3d 6640 18bc
00000030: 6871 bfbd c641 cebd 97a1 0c3d f2a7 9f3d
00000040: 9c04 493d b3aa 85bd 4e47 5abd 48bc 153d
00000050: 0bf2 bd3d d16b 613a 459e 91bb 766f c63c
00000060: 47af 4fbd 17d1 d5bd 2cbe 813c 1c35 ab3d
00000070: 18e3 debd 5f34 8abd ffb9 ec3a 97d4 aa3d
00000080: ef8f 4e3c 0464 86bd 28fa 303d 6c5d 603c
00000090: e603 8c3c 587b c4bd 0312 c43d 6669 c23d
000000a0: e270 943c f042 68bd b48f 253c 25fb 89bd
000000b0: 5067 98bd f3c7 94bc d339 c039 2f64 4f3d
000000c0: d776 e93c 3a2e fe3c dc05 81bc b91c 923d
000000d0: 3906 35bd 6434 ba3c 6068 a5bd b72f c5bd
000000e0: e72f 813c 58ab aabd 7d76 cabd 30bc 883d
000000f0: 0b71 98bd 45d0 8b3c e4fd b33d 2e46 28bd
00000100: 5eed cdbc fc78 8b3d 8a3f 073c d5af 32bd
00000110: 1d4e 9abd 12a1 223d dce7 33bd 60dc c0bd
00000120: 34dc bcbd 68a3 073d b4e7 78bd 1503 bcbc
00000130: 1a80 673d 91e4 b7bd e00b 8e3b 6bdd d7bd
00000140: 1d45 84bd 5c8f 283d b817 8dbd 01b5 813d
00000150: d08e ae3d 5870 09bd 4fa7 933d c196 dbbd
00000160: 222b 593d 24e3 95bc 5e41 973c ee2b a1bc
00000170: dd95 65bd 011d 703d 7e8f b8bc 3282 e0bc
00000180: 3055 72bb f79f 263a 9d82 a03d b1f0 293d
00000190: bf04 363d 84aa 49bd 68f9 f23c 7948 32bd
000001a0: 2742 01bc 8007 ccbd c9fc b03d 6de0 b63d
000001b0: 2bee 063d 7011 abbd e8ae 943d 6c8c f13b
000001c0: 97c2 89bd 2939 50bd f382 e6bc 05dd fe3c
000001d0: 5d82 1dbd caae 6d3d 35b7 a7bc 8009 033d
000001e0: b955 173c e417 82bc a2ca 0e3c f8a2 d6bd
000001f0: 73bb 30bc fe77 20bd 6b61 d6bc cc1c 963d
00000200: 3145 bbbd b9a3 d9bd 110f 9b3d 2c55 5bbd
00000210: d0a4 42bc 256f 5dbc d208 633d ed67 5fbd
00000220: 7cb0 723b 5bff 793c ef05 82bd 52ad 933b
00000230: 12ad aebd 5d27 feba 3802 c6bd 35f3 b23c
00000240: 45f0 cf3c 6fce 8c3c 77fa b33d a291 b7bd
00000250: 0f61 96bd d704 d2bd 726c 83bd 0a0c 533d
00000260: 4b04 c63c 0329 50bd a73a 7fbb 1361 9abd
00000270: ac12 5bbd bb5d 5e3c e4fd 733d 22f1 00bd
00000280: 6ef3 bd3d 14fe b7bd 029e 60bd bbe4 c239
00000290: eb22 d1bd 3674 62bd 9756 05bd 3dbb 923d
000002a0: e2aa 10bd f222 5e3c b1e8 2b3d 6ce1 253d
000002b0: efc1 bbbd bcfe 063c 9e3c 673d c19d a63c
000002c0: 38a8 33bd 9249 abbd 55f0 b3bd fcb7 8a3d
000002d0: 9b73 67bc 1ce7 a33c ab7e cbbd fc09 bdbc
000002e0: 1ae0 22bb ab3d 2cbd a8c8 613d 1ae9 8f3d
000002f0: b608 733d 09a7 abbd 90e7 82bd 5543 c7bd
00000300: a992 c0bd b3e9 633d 9291 5cbd 23da e83c
00000310: 4de8 aa3d 63fe 5dbc fad4 1dbd 9103 483d
00000320: a66a 86bd 18bf a73c 0561 c33c 33fd 903c
00000330: 0b81 c8bd 996e 823d 4b69 f0bc 4b3f a9bd
00000340: 7153 40bd 8a2c 9cbd 38e1 cfbd b61f f5bb
00000350: b948 4e3d 8d66 a33c dd37 ba3c ceec 02bd
00000360: ea5a dabc 9ce7 6f3d 2a03 dcbc 0d0b 8e3d
00000370: 998e fa3b 316b bf3c 3ec5 663c 4ba3 a7bd
00000380: 1372 403d ec9f 96bd f311 abbd bcdd c23d
00000390: f0e5 adbd 0085 a53c 5eca e93c 8211 ab3d
000003a0: 3044 9b3d a917 153d 0808 8a3d 55fa 0ebc
000003b0: 20ca a63d f9f0 633d 651a ef3c ce1b 6c3c
000003c0: fe02 d3bd 5d5d 9bbd 3e7a 31bd 7b19 80bd
000003d0: 4f23 c9bc 113d 1d3c 5382 b23d 4be9 843d
000003e0: 9271 fa3c 1944 d3bd ab03 57bd cc7f c4bd
000003f0: 987d 0abd 3ab1 ae3d e009 4fbd 09b9 b53d
-0.051516153 -0.07920883 0.08590456 0.07650407 0.0019048532 -5.249817e-05 -0.018929929 -0.01048117
-0.045796532 -0.00918405 0.09116303 -0.0092926975 -0.093478024 -0.10071139 0.03433379 0.07795705
0.04907666 -0.06526699 -0.053290658 0.036556512 0.09274682 0.0008599135 -0.004443916 0.02422307
-0.050704267 -0.10440271 0.015837751 0.08359739 -0.108831584 -0.0674827 0.0018060802 0.083413295
0.012607559 -0.06562045 0.043207318 0.0136941485 0.017091703 -0.095938385 0.09573748 0.094927594
0.018120233 -0.05670446 0.010105062 -0.06737355 -0.0744158 -0.01816175 0.00036664176 0.050632652
0.02849905 0.031027902 -0.015749864 0.07134385 -0.044195388 0.02273006 -0.080765486 -0.096282415
0.015769912 -0.083334625 -0.09885881 0.06676519 -0.07443436 0.017067084 0.0878866 -0.041082554
-0.0251376 0.06810185 0.008254895 -0.043624718 -0.0753443 0.03970439 -0.04392229 -0.09417033
-0.09221688 0.03311482 -0.060767844 -0.022950688 0.05651865 -0.089791425 0.0043349117 -0.10540279
-0.06458495 0.041152343 -0.068892896 0.06333352 0.08523333 -0.033554405 0.07209646 -0.107221134
0.05301965 -0.018296786 0.018463787 -0.019674268 -0.056051124 0.05862141 -0.02252936 -0.027405832
-0.0036977045 0.0006356234 0.078374125 0.041489307 0.04443812 -0.049234882 0.029659942 -0.043526147
-0.007889307 -0.09962368 0.08641965 0.089295246 0.03294198 -0.08352935 0.07259923 0.007371476
-0.06726568 -0.050835762 -0.028138613 0.03111125 -0.038454402 0.05802802 -0.020473102 0.03199148
0.0092367465 -0.015880533 0.008715304 -0.104803026 -0.010786879 -0.039176933 -0.0261695 0.07329711
-0.091440566 -0.10626931 0.07571233 -0.053548023 -0.011880115 -0.013515268 0.055428334 -0.05454247
0.0037031462 0.015258635 -0.06348788 0.0045067454 -0.08529104 -0.0019390393 -0.09668392 0.021844486
0.025383124 0.017188279 0.08788007 -0.08963324 -0.07342731 -0.102548294 -0.06417169 0.051525153
0.024171969 -0.05082036 -0.0038944872 -0.07538047 -0.053484604 0.013572152 0.0595683 -0.031479962
0.09274946 -0.089840084 -0.054838188 0.0003717298 -0.10211738 -0.05528661 -0.03255328 0.07164619
-0.035319217 0.013558136 0.04196996 0.040498182 -0.09167849 0.008239444 0.056454293 0.020338895
-0.043861598 -0.08363642 -0.08786074 0.067733735 -0.014126684 0.020007662 -0.099362694 -0.02307605
-0.0024852813 -0.042051 0.055123 0.070268825 0.05933448 -0.08381469 -0.06391823 -0.097296394
-0.09402973 0.055642795 -0.053849764 0.028424328 0.08345089 -0.01354942 -0.03853319 0.048831526
-0.0656331 0.020476863 0.023849973 0.01769886 -0.09790238 0.06368751 -0.029347083 -0.08264025
-0.046954576 -0.07625683 -0.10150379 -0.007480587 0.050362322 0.019946361 0.022731716 -0.031964116
-0.02665468 0.05857049 -0.026856977 0.069357015 0.0076463935 0.023366543 0.014085112 -0.081854425
0.04698379 -0.073547214 -0.08353033 0.09514949 -0.08491123 0.02020502 0.028538879 0.08352949
0.07581365 0.036399517 0.06739813 -0.008726676 0.08144021 0.05564973 0.02918739 0.014410926
-0.10303305 -0.07586167 -0.04332947 -0.0625486 -0.02455297 0.009597079 0.087162636 0.064898096
0.030571733 -0.10315723 -0.052493732 -0.09594688 -0.03381118 0.08529897 -0.050546527 0.08873183

hidden1.bias f4 [128]
00000000: 2695 c23d 6859 17bd 7816 bdbd 8aaa 283d
00000010: 762a 053e f5b7 93bd c453 ddbb d85d acbc
00000020: 3f2d 34bc f8cd 00bd e75a dd3c f18b fbbc
00000030: 9a7b e1bd 748c 41bc 2b4e 90bd 9e80 b7bd
00000040: 7771 d0bd cc02 82bd c36a 8b3d 3881 99bc
00000050: e5eb eabd 9c19 be3d 748b a43d 4a4f 85bd
00000060: dc9b 653d 8f37 17bc 1672 0cbd 09cb 2c3b
00000070: 39f1 3cbd 3b2a adbd 8f4a f8bc f981 1f3c
00000080: 7536 ab3a 295b 25bd bdc1 c739 3f5c 1fbc
00000090: 5d8e cabc 0f8e 153d e236 a7bd 58ad 07bd
000000a0: 6da1 02bd 62dd cdbc 967c 1abd c480 c2bd
000000b0: c197 6cbc 635f 4e3c c7c5 6b3b 9d9d 723d
000000c0: b29c b33d 430f 91bd 40d8 f93c 7787 aebd
000000d0: 1bc7 1b3d c050 0dbd 790f 903d d41e 153c
000000e0: 421d b3bd 6772 b7bd 552c 333c 3b89 603d
000000f0: 996e 973d 15b6 613d 0ef5 81bc 389e b4bd
00000100: d7b9 023d d200 903d 00c2 d4bc 8c73 943d
00000110: 1553 223d 08ec a33d 2dd9 6a3b f462 8d3d
00000120: 72dc e93d b157 cd3d fa9f 6e3d e875 19bd
00000130: 5a2d e0bc c058 10bd 37fb e3bc b978 2abd
00000140: f55c 8a3d a9d4 ad3d e47f 96bd 53a1 90bd
00000150: 1dde 2ebd 8e0c d63c d14d b7bd 6067 a2bd
00000160: fef2 87bd aef7 5ebd f4f4 6d3d d2d4 d7bc
00000170: e818 08bc a365 27bb 2d93 78bc 2f0f b53d
00000180: 8e9d bcbc a7e3 a1bd 0ce4 cb3d b283 e53c
00000190: be38 8abd f29e ed3c bbee 91bd e502 5dbb
000001a0: 740e 3e3d df19 cdbd 0136 6dbd 785a 1c3d
000001b0: cb66 963d 4b51 173d 55fa 3fbd 1f86 2d3b
000001c0: 4c45 44bc deba c4bd 1afb 82bd aaae af3d
000001d0: fe97 afbd 1a3f 563d c7da 083c fc71 5d3d
000001e0: eaa5 753d e3e4 e43d 37d7 adbd 7ff3 5b3d
000001f0: f084 c53d 229a 58bd 8676 b23d cb03 30bd
0.09501104 -0.0369505 -0.09232801 0.041178264 0.13004479 -0.072128214 -0.0067543704 -0.021040842
-0.010997116 -0.031446427 0.027020885 -0.030706378 -0.11009903 -0.011813272 -0.07046159 -0.08960079
-0.10177892 -0.0634819 0.068074726 -0.018738374 -0.114707746 0.09282228 0.08034411 -0.06509264
0.056056842 -0.009229555 -0.03428849 0.0026366136 -0.046128485 -0.084553204 -0.03030899 0.009735578
0.0013062494 -0.04037014 0.00038100584 -0.009726583 -0.024726087 0.03651243 -0.08164765 -0.033124298
-0.03189223 -0.025129978 -0.03771647 -0.09497216 -0.014440478 0.012595984 0.0035976039 0.059232343
0.08770122 -0.07082989 0.030498624 -0.085219316 0.03803168 -0.034500837 0.07034201 0.009101588
-0.08745815 -0.089573674 0.010935863 0.054818373 0.07394142 0.055105288 -0.015863921 -0.0881924
0.031915512 0.070314065 -0.025971413 0.07248601 0.039630014 0.08004004 0.0035835013 0.069036394
0.11419 0.100264914 0.058258034 -0.03746596 -0.027365375 -0.03524089 -0.02782975 -0.041619036
0.067560114 0.08487827 -0.07348612 -0.0706202 -0.042692292 0.026129033 -0.08950389 -0.079298735
-0.06638144 -0.054435425 0.058094934 -0.026346598 -0.008306719 -0.0025542758 -0.015171808 0.08840787
-0.023024347 -0.07904749 0.09955606 0.028016899 -0.06749104 0.029006455 -0.07125612 -0.003372365
0.046400502 -0.100147 -0.05791283 0.038172215 0.07343825 0.03694276 -0.046869595 0.0026477647
-0.011979412 -0.096059546 -0.0639555 0.085782364 -0.08573912 0.052306272 0.008352942 0.054063782
0.05997268 0.11176469 -0.084883146 0.053699013 0.096444964 -0.052881368 0.08714013 -0.042972367

hidden2.weight f4 [64, 128]
00000000: b9fb b9bd 2013 28bc ffc2 95bd fae3 bbbd
00000010: 7937 6d3c 0402 a2bd 5450 4bbd b836 20bc
00000020: f336 a53d f12e 483d e16a 5f3c fe5a a43d
00000030: 697d 22bd 085b fabc 369e 443d 447e 5bbd
00000040: 79d6 89bd 76a1 abbd e2d1 81bc 6e5a 9ebd
00000050: 8228 98bc 4b3f a53d 9624 6e3d da49 a43c
00000060: e72e cc3d 6dd7 8b3c f485 18bd 5b52 9c3c
00000070: 9404 3e3d e698 a9bd 7f1d 353d c91d b3bd
00000080: 45b6 2a3c 5a03 f23c a7f6 54bd e03d d93b
00000090: a85f d63b fd7b 19bd 9ac5 4f3d 2f6c b4bd
000000a0: 381c fabc 59fa 7d3d 00a0 3c3b bd57 cbbc
000000b0: e094 f83c 333c 0cbc 32eb 573d 3d22 273d
000000c0: cb50 25bd 1366 97bd aa32 503d dcd2 cdbd
000000d0: 517b 70bd 3983 753d 7b0f 6f3d d3cb 3e3c
000000e0: 1716 36bd 86d2 9dbc b853 ed3c d244 22bd
000000f0: fb98 ce3d 438e 3abd 9224 8c3b 04a4 c6bd
00000100: 5c3f 8f3d 5ac5 5a3d abab afbd 0ed6 713d
00000110: faa7 93bd 2576 353d 4cfc 85bd 97ad 4b3d
00000120: 3a12 3dbc 685f 3d3d feff 243d aadb 77bd
00000130: 276a 803d 04ef b23c cd64 b4bd 3305 2fbd
00000140: 1bcb d9ba 26ee b0bc 5834 3ebd af40 b1bd
00000150: c262 5e3d 13a4 adbd 3f73 613d f9f9 96bb
00000160: b8fe 28bd 0041 96ba 6a1d 1d3d c1ef eb3c
00000170: ed29 18bd e6ae b83c 4f3c 983d 3e33 b9bd
00000180: 3319 74bc 6054 83bb 9282 213d 1b1c b1bc
00000190: 3d3d 10bd 00fe 6a3a 9cc0 87bd 32cb a3bc
000001a0: 561d 1a3d 5503 0fbc ba85 76bd 3c82 3abd
000001b0: 55c4 5dbd 3a69 28bd d135 443d a140 babd
000001c0: 3b64 07bd 24ac 9f3d 2909 1dbc 4098 543d
000001d0: 9879 913c 894a 863d 6633 883c 7b0f fbbc
000001e0: 7e20 1bbd 91e1 c23c 4e03 a13d f841 9ebd
000001f0: ee77 6dbd 2014 83bd 8b74 44bd 82f9 b8bc
00000200: b5a2 2cbd 2967 8ebd a238 2f3d dc3f 5ebd
00000210: 6e6f 263d e89c 68bd 06a2 80bd 7e68 633d
00000220: 5a89 4a3d b66d c8bb a313 ef3a d74e 70bc
00000230: 500a d7bb cb02 8e3c ce6f a73d 1b6d d53d
00000240: e8e2 413c ffdc c53a 2dc7 b9bd c4fc a0bc
00000250: b1ef 84bd e5f6 43bd 4381 36bd fc99 fabb
00000260: 692c 13be ccd1 4b3d 058e 223c 9a3f 9ebd
00000270: 4c53 52bd 9df7 84bd 42bd d9bc 0350 0f3d
00000280: ad75 71bd 3243 ddbd 102e 2e3d 08ed 73bd
00000290: a496 9c3d 5ee2 efbc 44d7 f23c ed4f b43c
000002a0: b9d4 9fbd 852e 5dbd 9076 7cbd c134 9abd
000002b0: 758e a13d b37b 4cbd b43d 1c3d 3323 83bd
000002c0: 25dd 783d b2d0 fbbc 7ed1 623d 7639 3cba
000002d0: 092b 76bd b2c6 423d 5774 6ebd 1610 2d3b
000002e0: e3a0 7abd 7240 833c 70ea 1f3d bfc6 7b3b
000002f0: 8497 8bbd 42ab a53d 1769 b93c 9d68 2fbc
00000300: ba22 2cbc e340 5dbd af12 fb3c f0ce b4bd
00000310: dcd6 fe3c 2e02 83bc fa8d 153d be2b b63d
00000320: 4cce 283d 26fc 64bd 045a 64bd bce3 f1bc
00000330: d315 b3bc 9985 ac3d 5428 04bd 36df 05bd
00000340: a329 c13c 723a e03c ae9e 253d 8570 a2bb
00000350: d06c ff3c 64bc 2f3c 60dd af3d 74c5 a53c
00000360: d54c ef3c 7ad0 29bd 80e5 a83c 8735 633d
00000370: 9a14 db3c 9962 343d 9510 8f3d 62e8 663d
00000380: 713e 293d 93c3 51bb 9410 a73c 16ab a03d
00000390: 6843 acbc 3f2e adbd a070 73bd b04c daba
000003a0: 71d3 aa3d c80d 9abc b807 b9bc 0457 53bd
000003b0: 8451 8a3d 1e27 033d 8c0c 54bd 3d71 213d
000003c0: 5d65 363d 3cc5 d93a 999f 813d b833 633d
000003d0: 466e 6ebd d4c0 ca3b 08dd 323d b5ca be3c
000003e0: d8ca dcbb a145 46bd 87f4 413d ede0 913c
000003f0: 760e 023c 2ec2 2ebd 7e59 193d f730 283d
-0.090812154 -0.010258466 -0.07312583 -0.091743425 0.014478558 -0.07910541 -0.049637154 -0.009778671
0.08067121 0.04887289 0.013636322 0.08025168 -0.03967038 -0.030560985 0.048002444 -0.053587213
-0.067303605 -0.083804056 -0.01584715 -0.07732092 -0.018574003 0.08068713 0.05814036 0.020054746
0.099698834 0.017070496 -0.037237123 0.019082239 0.046391085 -0.08281116 0.044217583 -0.087459154
0.010419433 0.029542614 -0.05199304 0.0066296905 0.006542165 -0.03747176 0.050725557 -0.08809697
-0.030531034 0.06200633 0.002878189 -0.02482211 0.030344427 -0.0085592745 0.052714534 0.040804137
-0.040360253 -0.07392516 0.050829567 -0.10049984 -0.058711354 0.059939597 0.058364373 0.011645275
-0.04445466 -0.019265424 0.028970584 -0.039616413 0.100877725 -0.045545828 0.0042768205 -0.09699252
0.06994507 0.053410865 -0.08577665 0.05904203 -0.07209773 0.044302125 -0.065422624 0.049726095
-0.01153999 0.046233565 0.040283196 -0.060512222 0.06270247 0.021842487 -0.08808289 -0.042729568
-0.0016616316 -0.021597933 -0.046436638 -0.086549155 0.0542934 -0.0847856 0.055041548 -0.004607436
-0.041258544 -0.0011463463 0.03835813 0.028800847 -0.03714936 0.022544336 0.07433378 -0.09042977
-0.014898586 -0.004007861 0.039431162 -0.021619847 -0.03521465 0.00089642406 -0.06628534 -0.019994352
0.037625633 -0.008728822 -0.060186125 -0.045534357 -0.054142315 -0.041115977 0.047902886 -0.09094358
-0.03305457 0.07796505 -0.0095847035 0.05190301 0.017758176 0.06557185 0.016626071 -0.03064703
-0.037872784 0.0237892 0.078619584 -0.07727426 -0.057975702 -0.06400323 -0.047962707 -0.022579912
-0.042147357 -0.0695327 0.04277862 -0.05426012 0.04063361 -0.056790262 -0.062809035 0.055519573
0.049447395 -0.006116594 0.0018240105 -0.014667234 -0.0065625086 0.017335316 0.08175622 0.10421201
0.011833884 0.0015095769 -0.09071193 -0.019651778 -0.0649103 -0.04784288 -0.044556867 -0.007647751
-0.1437241 0.049760625 0.009921555 -0.07726975 -0.05134897 -0.06492541 -0.026579503 0.034988414
-0.058950115 -0.10803832 0.042524397 -0.059552222 0.0764592 -0.029282745 0.029643662 0.022010768
-0.078042455 -0.053999443 -0.061636508 -0.07529593 0.078885 -0.049922656 0.038144782 -0.06403198
0.060757775 -0.030739162 0.05537557 -0.0007180193 -0.060099635 0.047552772 -0.05821642 0.0026407293
-0.06118859 0.01602194 0.039041936 0.0038418022 -0.06816009 0.080893055 0.022633119 -0.010706094
-0.010506326 -0.05401696 0.030648557 -0.08828533 0.031108312 -0.01599225 0.036512353 0.08895062
0.041212365 -0.05590453 -0.055749908 -0.029527538 -0.021860993 0.08423919 -0.032265022 -0.032683574
0.023579424 0.027371619 0.040434532 -0.004957261 0.031179816 0.010726068 0.08587146 0.020235755
0.029211441 -0.041458584 0.020617247 0.05547097 0.026743222 0.044039343 0.06985585 0.05637396
0.041319314 -0.003200744 0.020393647 0.07845132 -0.021028236 -0.08456086 -0.05943358 -0.0016654935
0.083411105 -0.0188054 -0.022586688 -0.051596656 0.06753829 0.032019727 -0.051769778 0.039414633
0.04453026 0.0016614567 0.06329269 0.055469245 -0.058210634 0.0061875377 0.043667823 0.023290018
-0.006738048 -0.048406247 0.04735234 0.017807448 0.007938018 -0.042665653 0.037438862 0.04106232

hidden2.bias f4 [64]
00000000: ddcc 1c3d e41e 1f3d 4395 ad3d 651c 8a3d
00000010: 0287 d7bc 7409 123d 08ca 10bd 2177 5bbd
00000020: 19c2 4c3d 4dcd 953d e5a1 1b3d 4767 e93c
00000030: b25d 09bc a01e c43b 574d 363d 001f 65bc
00000040: 9597 5bbd 25d1 7d3d 7d19 383d 7be4 563d
00000050: a939 9bbd 1103 433d 3264 03bd a41b 99bd
00000060: 10e0 733d 5a7f 8b3c ddf6 edbc 2eed 6a3d
00000070: 0f0b 903d 3a50 d53d 0686 0cbc 335c a0bc
00000080: 5feb b1bd 4e3c 6fbd 53c3 67bd be38 673d
00000090: 46a0 0b3b 4068 833d 181e 42bd 91bc d5bc
000000a0: 66cb 68bd 5383 38bd 7ef9 e5bc b255 4f3d
000000b0: 8fe5 af3d d955 783b 1d78 933c c27f 0dbd
000000c0: 5d9a 723d 7023 8a3d a3eb 693b a15b 3e3d
000000d0: d191 b13d 861f abbc c77f 73bd a5d8 ed3c
000000e0: ed46 3fbd 373f ae3c 7583 233d 6883 093d
000000f0: 780d 83bc 0767 8f3d 9263 8ebd c5a1 de3c
0.03828131 0.03884782 0.08475735 0.06743697 -0.026309494 0.035653546 -0.035348922 -0.053580407
0.049989793 0.07314549 0.03799619 0.02849163 -0.008384155 0.005985096 0.04450735 -0.013984442
-0.053611357 0.061967034 0.044946183 0.05246399 -0.07579357 0.047610346 -0.032077976 -0.07475975
0.059539855 0.0170285 -0.029048378 0.0573551 0.07033359 0.104156926 -0.008576876 -0.019575214
-0.086874716 -0.05840712 -0.05658276 0.056450598 0.0021305247 0.064163685 -0.04739198 -0.026090892
-0.0568346 -0.045047116 -0.028073069 0.050618835 0.08588707 0.0037892966 0.01800161 -0.034545667
0.059229244 0.067450404 0.003569343 0.046474103 0.086703904 -0.020889055 -0.05944803 0.029033968
-0.0466985 0.021270378 0.03992029 0.033572584 -0.015997633 0.07002073 -0.06952585 0.027176747

output.weight f4 [13, 64]
00000000: bc4e 83bd bb44 a03d 570a d03d a399 1fbe
00000010: 6c50 03bd 416f a63d 6f65 30bd 2507 fd3d
00000020: e727 8ebd 32f7 ca3c fb19 9fbd 1ff3 b3bc
00000030: c74f 83bd e072 a0bd 980f cfbd bbf9 be3d
00000040: 7693 c33d c183 a93d aefb 25bd 8a91 90bd
00000050: 262d f9bd 9abe 99bc dc78 bbbd 4850 883a
00000060: 0030 77bd 08b0 913d ffe0 fc3d 555e 033d
00000070: 3a18 6a3d 5f3f a0bd 0584 f7bd 9e71 37bd
00000080: 0998 993c 2b0d f03d 6211 1a3d 0778 d73d
00000090: 9742 783c e9eb 52bd 15e0 673d 9be6 053b
000000a0: 58c0 193d 83f1 ca3c 0afb f4bc 35a8 403d
000000b0: 5008 99bc 1499 5c3d a708 d33c fe08 fd3d
000000c0: 6352 963c b85f 1f3d f15b 463c d873 c2bc
000000d0: 478e ed3c bd2b 08be 52ec a03d e798 ee3d
000000e0: 6af4 c73d 25ff 4b3d 1795 3a3b a3c0 973d
000000f0: 4efc cf3d a278 673c 0272 13be 4fa6 c6bd
00000100: dcc0 cbbd a5a3 ba3d 6d00 a0bd 1aa6 af3d
00000110: ea29 0bbe 3b99 75bd 5fed 0ebe c831 9d3d
00000120: 8cec 083e a435 babd f747 923d 224d 7ebd
00000130: 0bd4 003d 2c3f 863d be2d 96bc b5b1 a8bc
00000140: dc74 b73c e056 34bc 0d35 d0bd 0f66 d0bc
00000150: 34c7 a7bc 000b a93d cb2b 963d b933 e03c
00000160: d505 babd 97d2 a23d 4550 8abd 202b 84bd
00000170: 1494 61bd e00d 59bd afae b1bd 833e 96bc
00000180: 59bf 8ebc c9db 6cbd a46d 25bd cb1c cebd
00000190: 1a52 40be 2ff1 eb3c 40d1 783b 0b2e d4bc
000001a0: 1fce e5bb 59a7 993c 5e35 9cbd 5460 223d
000001b0: fa5a bcbd dd5f efbc d242 823d 0723 34bc
000001c0: 8ef7 edbd 0d7d c3bd c767 e3bd 8f2d 1bbd
000001d0: 8700 a43c eb12 2cbd 4cfe 52bd 3da3 f2bd
000001e0: e447 e13d c5eb 72bd c77c 003d 8aef fe3d
000001f0: 304a c63d 8424 95bd 349f aebc 4c3b b03c
00000200: 593e 923d 080a ff3d 0258 ce3d 2805 7ebd
00000210: b283 0ebe 2d79 843d f6da 9a3c e0cd 8abd
00000220: b172 a4bc 1199 e1bd 720b cdbd 8068 63bb
00000230: 9961 323d 8172 b5bc 45e2 dd3b 1b63 c33b
00000240: 515e e1bd a591 dd3c 0f4d 67bc ac7d ca3c
00000250: fcfe 6e3c ae39 d3bd 7c4a 06bd e791 cfbd
00000260: 8b79 d23a 844d 6b3d 2686 3bbd 7fec 6d3c
00000270: abee 9dbc c8f3 123d 2f81 e5bc 23b3 9f3c
00000280: d744 0fbd 85d4 253e 7ffc c93a 086a cebd
00000290: 5dcc 92bd 15f3 a3bd b7c6 85bd 75fb 90bd
000002a0: 2bdc 7fbd 3b06 8dbd 099f e4bd af09 043d
000002b0: 84e1 d73d 50e3 413c 3ef4 483d 9f23 993c
000002c0: c43e 93bd 4069 b43c 2c05 abbd a9af c53d
000002d0: b5d1 ab3c 5692 2a3d 1e39 703d 7ea5 ca3d
000002e0: ec70 de3d 43a7 9b3b 0a37 9fbd 27c5 00bc
000002f0: 3012 a7bd 05c5 063e a829 d9bc 4d84 8cbd
00000300: fe56 abbd a4d7 82bd 14a4 603d b5eb 2d3d
00000310: c5b9 92bd 581d dabd b3b9 4cbe 6912 103c
00000320: 0de6 193d e535 cd3d 49f9 ddbc a7a4 f13d
00000330: 526e b53d 13e4 353d ff68 8dbd 0311 9ebd
00000340: d2c7 42bd 4021 d9bc 89d4 ae3d 1d76 cebd
00000350: 4703 0abd e015 96bd f437 f73b 4f1c 8abd
00000360: 1c23 843b 04ea a83d af61 cf3d 5f8c eebd
00000370: bffe 7ebd 573b 09bd 0245 153d 03e6 7dbd
00000380: 555e 8abd f51b 0bbe c84b 59bc c8d5 853d
00000390: 85f8 25be a4a2 bf3d fe7b 883d f8f5 4c3d
000003a0: 6360 a3bb 59fe bb3d a515 6ebd 73e0 eabd
000003b0: f4d2 f8bd 9905 f0bd d051 283c 1ff3 63bd
000003c0: 9b07 963d e900 e33d cd92 35bc 2a9a d7bd
000003d0: 4462 c3bd 6153 b23d 123d 0fbd b44d 923d
000003e0: d5b8 0b3c 8468 cfbb 9fbf c8bd 972a ed3d
000003f0: a06c 2e3c eda9 813d 051c c1bc e3ae 83bd
-0.06411502 0.07825609 0.10158222 -0.15585952 -0.03205912 0.08126689 -0.043065485 0.12354878
-0.069412045 0.024776075 -0.07768627 -0.021966515 -0.06411701 -0.07834411 -0.10110396 0.09324976
0.0954961 0.08277083 -0.040523224 -0.070590094 -0.121668145 -0.018767644 -0.091539115 0.0010399902
-0.06034851 0.071136534 0.12347602 0.032072384 0.05715201 -0.07824587 -0.120857276 -0.04478609
0.018749254 0.117212616 0.037614234 0.1052094 0.015152595 -0.051494513 0.056610186 0.002043164
0.03753695 0.024773365 -0.029904861 0.047035415 -0.018680722 0.053856924 0.025760962 0.12355231
0.018349832 0.038909644 0.0121068815 -0.02373688 0.028998507 -0.13297935 0.078575745 0.116502576
0.09763415 0.04980387 0.0028470212 0.074097894 0.10155545 0.014127882 -0.1439896 -0.096996896
-0.099488944 0.09113244 -0.07812581 0.08576603 -0.13590208 -0.059960585 -0.13957737 0.07675511
0.13371485 -0.090922624 0.071426325 -0.06208528 0.03145222 0.06555018 -0.018332358 -0.02059255
0.02239459 -0.011007041 -0.10166369 -0.02543929 -0.02048073 0.08254051 0.073325716 0.027368413
-0.090831436 0.07950323 -0.067535914 -0.06453538 -0.05507286 -0.052991748 -0.086758964 -0.018340355
-0.017425226 -0.05782679 -0.040387765 -0.100640856 -0.1878132 0.028801529 0.003796652 -0.025900861
-0.007013097 0.018756555 -0.076273665 0.039642647 -0.0919704 -0.029220516 0.06360401 -0.010994679
-0.11619483 -0.09545336 -0.11103778 -0.037885245 0.020019783 -0.04201023 -0.051512048 -0.118475415
0.1100004 -0.05930688 0.031368997 0.12448032 0.09682119 -0.072823554 -0.021316148 0.02151265
0.07140798 0.12453085 0.1007538 -0.062016636 -0.13917425 0.06468425 0.018903237 -0.06777549
-0.02007422 -0.11015523 -0.10011949 -0.0034699738 0.043550108 -0.022149326 0.006771358 0.005962742
-0.110043176 0.027046988 -0.014117493 0.024718128 0.01458716 -0.10313736 -0.032785878 -0.101352505
0.0016057951 0.05744697 -0.04578223 0.014521717 -0.019278845 0.03587702 -0.028015701 0.019494599
-0.03497776 0.16194351 0.0015410333 -0.100788176 -0.071678855 -0.080053486 -0.065320425 -0.070792116
-0.062465828 -0.06885954 -0.11163146 0.032235797 0.105410606 0.011833981 0.049061053 0.018693743
-0.07189706 0.022022843 -0.08350596 0.09652645 0.02097402 0.041643463 0.05864822 0.098948464
0.10861382 0.0047501638 -0.0777417 -0.007859505 -0.08157766 0.13161094 -0.026509121 -0.06861172
-0.08366202 -0.063887864 0.054843977 0.042461116 -0.07164339 -0.10650128 -0.19992714 0.008793452
0.03757291 0.10020045 -0.027096407 0.11798983 0.088589326 0.04440696 -0.06904792 -0.077180885
-0.047553845 -0.026505113 0.085366316 -0.10081122 -0.03369453 -0.07328391 0.007544512 -0.06743681
0.0040325057 0.0824776 0.101260535 -0.116478674 -0.062254664 -0.033503857 0.036442764 -0.061986934
-0.06756274 -0.13584884 -0.013262697 0.06534916 -0.16208084 0.09357193 0.06664275 0.05003926
-0.0049858554 0.09179372 -0.05812611 -0.114685915 -0.12149611 -0.11719818 0.010273412 -0.05565178
0.073256694 0.11084158 -0.011082363 -0.10527451 -0.09540227 0.087073095 -0.03497035 0.07143727
0.008527954 -0.006329598 -0.09802174 0.11580389 0.010646015 0.06331239 -0.023572931 -0.06429841

output.bias f4 [13]
00000000: d74d c63d 19ac 45bc 0bdb 7bbd 07bd 8d3b
00000010: 7198 7b3d c37a b23c 3f95 703c d645 6ebb
00000020: 2aa4 fc3c 5ed2 29bb f19a 963c 8f6d c4bd
00000030: 8a3b 003e
0.096828155 -0.012064957 -0.061488193 0.0043255123 0.061424676 0.021787053 0.014684021 -0.0036357543
0.030839998 -0.0025912742 0.018384429 -0.09591209 0.12522712
