Data/mlp_cpu_model.pth (torch, 88263 bytes, 6 tensors)

hidden1.weight f4 [128, 96]
000000 31 26 86 3d 7b 36 82 3d bd fb 8e 3b 04 23 d6 3c
       0.06550253 0.063580476 0.0043635056 0.026139744
000010 9d 7c f5 bc 82 57 27 3d 68 3e 4b 3d 4d ac 87 3d
       -0.029966647 0.04085494 0.049620062 0.06624661
000020 a4 d4 71 bc 3c d0 f4 3d 03 44 38 3d 42 00 97 3d
       -0.01476017 0.1195378 0.044986736 0.07373096
000030 a6 99 96 3c 81 cc a6 bd 71 48 70 bd 99 82 31 ba
       0.018383812 -0.08144475 -0.058662836 -0.0006771475
000040 6a a4 45 3d 6e d6 04 be 80 43 8e bd 83 22 15 bd
       0.0482525 -0.12972423 -0.06946468 -0.036409866
000050 34 d3 cd bd 1a 31 93 3d 47 f2 04 be 0e 57 89 bd
       -0.100500494 0.071871 -0.12983046 -0.067060575
000060 08 c0 a0 bd b3 16 82 3d f1 e3 0f 3e 03 37 b5 3d
       -0.07849127 0.06351986 0.14051796 0.08848383
000070 47 a9 67 bd 95 55 43 3c 64 2a 64 bd c8 f8 cb bd
       -0.05655792 0.01192226 -0.05570449 -0.09959561
000080 f3 e7 05 3c 2a 08 77 3d 0f 09 25 bd 0e e7 9f bb
       0.008172977 0.06031052 -0.040291842 -0.004879839
000090 d2 c7 ab bd 21 d6 2a 3d 9c a8 ba 3c df 3a 82 bd
       -0.08387722 0.041708115 0.022785477 -0.06358885
0000a0 a3 fa ba bd d4 7e 89 3d 12 db 40 3d e9 d7 4a bc
       -0.091298364 0.06713644 0.04708392 -0.012380579
0000b0 d2 f7 11 bd b1 7f 71 3d 9c 59 2a bd 3b ce 04 3c
       -0.03563673 0.058959667 -0.041589364 0.00810581
0000c0 66 96 33 bd dd dc e7 3d 32 a2 a3 3d 83 b7 52 bd
       -0.043844603 0.11321423 0.07989921 -0.05144454
0000d0 f2 67 3e 3e 0a d0 de 3d a9 29 b3 bd 65 e7 8c 3d
       0.1859434 0.10879524 -0.087481804 0.068800725
0000e0 a0 55 e5 bd 66 a5 54 bd d3 63 ab 3d c7 a9 aa 3c
       -0.11197972 -0.05191555 0.08368649 0.02083291
0000f0 f7 0c c7 3d a2 12 b4 3c b7 d9 12 be ea e0 4f 3b
       0.0971927 0.021981541 -0.14340864 0.0031719753
000100 31 ec a5 bd b6 51 a8 3d d2 0f ef 3d 92 18 b8 3c
       -0.081016906 0.0821871 0.11672939 0.022472654
000110 f3 1f 6c 3d 9a 62 a6 3d ce f3 fc bd 8f de 31 3b
       0.057647657 0.081242755 -0.123511896 0.0027140712
000120 14 7c 9c bd 54 c8 10 3c ef f7 d2 bd 5c 6c 51 bd
       -0.076408535 0.008836824 -0.10301196 -0.05112873
000130 4c fe 47 bd 34 f5 17 bd 29 ca 59 bc a1 6c a8 3d
       -0.0488265 -0.03709908 -0.013292828 0.08223844
000140 27 e4 35 bd f1 93 8f 3c 1b 45 24 3c c9 3e 73 bd
       -0.044407036 0.017526599 0.010026242 -0.05938605
000150 3b c6 19 be b3 89 17 be 47 3b 03 bb d3 ad 85 3d
       -0.15017025 -0.14798622 -0.0020024346 0.06527295
000160 f2 bd 90 3d 83 b9 c5 bc 85 b4 da bc e5 64 ea 3d
       0.07067479 -0.02413631 -0.026697407 0.11445025
000170 f5 6a 4b 3c 13 b8 73 bd 9e 80 75 bc fc 57 fa bc
       0.012415637 -0.05950172 -0.014984278 -0.030559532
000180 0f 62 81 bc a0 09 67 bb 56 5a c5 3d 52 e9 d2 bd
       -0.015793828 -0.003525354 0.09636371 -0.102984086
000190 0d ee 0a bc 57 68 e0 bc 72 47 35 bd fd 4f ad bd
       -0.008479607 -0.027393503 -0.04425759 -0.08462522
0001a0 e9 54 a4 bd 72 f2 01 bd 0c 34 96 3c 5b c9 da 3b
       -0.08024008 -0.031725354 0.018335365 0.0066768355
0001b0 2e eb 7a 3d 71 cc 8e 3d 86 41 93 bd 12 a1 db bc
       0.06125944 0.06972588 -0.07190232 -0.026810203
0001c0 ac 11 86 3d bd 1b 64 3d 29 78 bd 3b 4a 2f eb bd
       0.065463394 0.055690516 0.0057821465 -0.11483629
0001d0 d5 49 4b 3d 5c b8 52 bc d1 62 b0 3d 80 e8 2a bd
       0.04963096 -0.0128613375 0.08612598 -0.041725636
0001e0 1a 2f 0c 3d 3c d5 01 bd 2e ff bc bd de a6 52 bd
       0.034224607 -0.031697497 -0.09228359 -0.05142867
0001f0 76 ff 98 bd e4 58 9d 3d d3 8d bf 3d 94 e1 08 3d
       -0.074706 0.0768297 0.09353223 0.033418253
000200 d4 43 f7 bc 0b 6f 57 3d a8 a6 08 3d df 7f ad bd
       -0.03018371 0.052596133 0.03336206 -0.08471655
000210 dc 46 a4 3b da af ad 3d 4c 10 d8 3c a6 d1 37 bd
       0.00501333 0.08480807 0.026374958 -0.04487767
000220 a1 55 ba 3d 99 ff 6a 3d a9 0f 1e 3d fe cc b9 bd
       0.09098364 0.057372663 0.038589153 -0.09072302
000230 0e 2c a3 3d 7c e9 0e bd a6 44 37 3d d1 49 55 bd
       0.07967387 -0.034890637 0.044743203 -0.05207235
000240 0d c6 98 bd d8 08 ee bd 6f e7 ef bc ca 52 8e bd
       -0.0745965 -0.116227806 -0.02928516 -0.069493845
000250 9b 1a 52 bd 87 2d cd bd 27 1d 9a bd 34 5a 6a bd
       -0.051294904 -0.10018449 -0.075250916 -0.05721493
000260 90 7c 5d 3d 8e 3a 06 3d f1 0f d0 3d cf c3 2f 3d
       0.05407387 0.032770686 0.101592906 0.042911347
000270 29 bb 8d bd 40 65 95 3d 87 2e a6 3d a3 05 96 bc
       -0.069204636 0.072947025 0.08114343 -0.018313235
000280 52 87 70 3c 90 88 73 bd 2d 93 04 3d 9b b0 72 bd
       0.0146807 -0.059456408 0.03236692 -0.059250455
000290 83 22 9b bd 02 93 84 bd 0e 7f 6b 3d 66 3c e5 bd
       -0.07574942 -0.06473352 0.057494216 -0.11193161
0002a0 e2 43 04 3d 9d 93 72 bd a4 37 56 3d 72 d1 75 3d
       0.0322913 -0.059222806 0.052299157 0.060014196
0002b0 b0 c7 ba 3d 25 7b eb bc 6c eb 0a 3d 93 aa e3 3b
       0.091201186 -0.028745243 0.033915922 0.0069478243
0002c0 15 1c 22 bb 81 99 86 bd 9b ad e4 bd d4 3f b8 bd
       -0.0024735976 -0.06572247 -0.11165925 -0.08996549
0002d0 2b b5 12 bd 08 b8 bc 3d 8a 27 82 bd c9 47 78 bd
       -0.035817306 0.09214789 -0.06355198 -0.060615335
0002e0 e1 84 28 3d b5 59 a7 3b c1 1a 0c bd 41 0e 89 3c
       0.04114235 0.0051071295 -0.034205202 0.01673043
0002f0 4d 6d 93 3d a5 91 b7 bd 02 4b 9e 3d 78 4c ad 3d
       0.07198582 -0.08963326 0.0772915 0.08461851
000300 04 e2 1c bd 45 07 ae bd 8d 62 bd bd 37 86 be bd
       -0.038301483 -0.0849748 -0.09247313 -0.09302943
000310 16 74 c5 bd 00 d8 24 3d 17 35 88 bb f1 07 08 bd
       -0.09641282 0.040245056 -0.0041567194 -0.0332107
000320 aa 62 89 bd f2 c6 22 3d c7 6b ed 3c eb 56 c4 bd
       -0.06708272 0.03974051 0.028982056 -0.09586891
000330 3d d5 9a bd be d4 94 3d eb 45 34 3d 9d 1e 03 bd
       -0.07560203 0.0726714 0.04401199 -0.032011617
000340 bf e4 c3 bc 60 9e 6d 3c 16 00 30 bd bc fc a8 3d
       -0.023912786 0.014503092 -0.042968832 0.0825133
000350 cb 00 e2 3c 68 cf 75 3c 54 ef 1c 3d 07 04 78 bd
       0.027588269 0.015003063 0.03831418 -0.060550716
000360 9f 90 ef 3b 1e 15 c6 bd 3f 1a 8c bd 0f bf 15 3d
       0.0073109413 -0.096719965 -0.068409435 0.03655916
000370 68 ce a1 bb 94 cc 89 3c 53 98 b4 3d 14 de 0f bd
       -0.0049379356 0.016821183 0.08818116 -0.0351239
000380 24 91 c0 bc 1c f5 43 3d 39 99 59 3b 98 4f 7b 3d
       -0.023506708 0.047841176 0.00332029 0.061355203
000390 df 59 1e bd 64 47 cb bd 93 ef 80 bd e0 b4 9c bd
       -0.038659927 -0.09925726 -0.06295695 -0.07651687
0003a0 2a 59 11 bd a5 76 77 3d 4c af cb bd 4b a1 89 3d
       -0.035485424 0.060415883 -0.099455446 0.06720217
0003b0 db 00 84 3d a6 51 a1 3c 84 91 d3 3c 1e 70 b9 3c
       0.06445476 0.019692253 0.025826223 0.02263647
0003c0 4e 1c 49 bd 80 f5 a4 bd 00 f4 98 3d c5 48 b1 3d
       -0.04909926 -0.08054638 0.07468414 0.08656458
0003d0 bd e4 8f 3d be 4a c0 3d 8e 71 dd 3c 64 80 b2 3d
       0.0702605 0.09389256 0.027031686 0.08715895
0003e0 ff 5d 62 3b 8c 0f bd 3d 54 20 9e bd b5 1f 89 3d
       0.003454089 0.09231481 -0.0772101 0.06695501
0003f0 ca 16 cf 3c 1b 1d aa 3d 05 15 8a bd d2 7b 94 3c
       0.025279421 0.08306333 -0.067422904 0.018125448

hidden1.bias f4 [128]
000000 31 71 bd 3d 4e fd df bd 1b 11 84 bd 21 b0 09 bd
       0.09250105 -0.10936986 -0.06448575 -0.033615235
000010 24 76 5f 3d c5 9e 1f be 26 f8 31 bd f1 3e bf bc
       0.054556027 -0.1558791 -0.043449543 -0.023345442
000020 ab da 16 bd a9 58 95 bd 3c 52 40 bd 0c b9 b7 bd
       -0.03682963 -0.07292301 -0.046953425 -0.08970842
000030 47 2f 34 bd 24 fa 14 bd f8 ef 18 3d 95 86 08 3e
       -0.0439904 -0.036371365 0.037338227 0.13332589
000040 e5 c4 ce 3d 34 f9 93 bd 1b 0b 61 bd 95 a3 e3 3c
       0.100961484 -0.07225266 -0.05494223 0.027787963
000050 af 62 fe bc 88 1e 87 bd 00 a2 c9 3d ab 7d da 3c
       -0.031052915 -0.0659762 0.09845352 0.026671251
000060 ba f4 09 bc ac 4b c0 bb b1 58 92 3d 39 3b 5c bd
       -0.008420164 -0.005868396 0.07145823 -0.053767417
000070 2e 27 4d bd 2f 90 56 bc 50 24 86 3d 1b d5 f1 bc
       -0.050086193 -0.0130958995 0.06549895 -0.029520562
000080 11 ea f3 bb 36 4e 84 3b d6 0e ac 3c 6c ee 2b 3e
       -0.0074436744 0.004037644 0.021003168 0.1679017
000090 cf c2 1d 3d 1e 46 b9 bd 89 97 22 be 68 85 01 bd
       0.038515862 -0.09046577 -0.15878119 -0.031621367
0000a0 fe 0d b2 bb 86 36 ac bd a5 6c 21 3d d3 a5 04 3c
       -0.005433797 -0.08408837 0.039410252 0.008096176
0000b0 f3 b7 80 3d 64 03 ad bd 98 6e 2f bd 33 1d 9b bc
       0.062850855 -0.08447912 -0.04283008 -0.018934822
0000c0 1e 1d b4 3d c8 3c 49 3c 58 9c 41 3d e8 29 7c bd
       0.08794616 0.012282558 0.04726824 -0.061563402
0000d0 ef 0a 94 3c 52 e9 42 3c 08 c6 86 3d 1b e1 2e 3e
       0.01807162 0.011896448 0.0658074 0.17078058
0000e0 e0 71 25 bd 61 c0 d2 3d e1 24 94 bd ef ac 96 bd
       -0.040391803 0.102905996 -0.072335966 -0.07357203
0000f0 94 93 2f bd cd 1e 62 bc 89 d2 c5 bc 47 4e 8b 3d
       -0.04286535 -0.013801289 -0.024148243 0.068020396
000100 75 fb 19 bc be 12 17 3d 25 5f d5 bd c2 80 b4 3d
       -0.009398331 0.03688311 -0.10418538 0.08813621
000110 84 ba b7 bc c4 46 c2 bd 20 27 f8 3c cc 40 6e bd
       -0.022427805 -0.09486154 0.030292094 -0.058167264
000120 f8 ac a2 bc b0 3e 83 3d 08 a9 4a bb f0 f5 a8 ba
       -0.019857869 0.06408441 -0.0030923504 -0.0012890678
000130 18 ac 14 3d 15 92 be bd 7b d6 99 bd 18 ae 29 bd
       0.036296934 -0.09305207 -0.07511612 -0.041425794
000140 d0 47 46 3c a1 ec c0 bd 36 bd 5a bd 90 a4 9e bd
       0.012102082 -0.094201334 -0.0534031 -0.077462316
000150 1e 79 b4 bd d0 4d c3 bd 25 f7 f1 bd b0 5a e8 bc
       -0.08812164 -0.09536326 -0.11814717 -0.028363556
000160 5d 0e 92 bd c3 5e c3 3d f9 eb 4f bd 47 88 e1 3c
       -0.07131646 0.09539559 -0.05076215 0.027530802
000170 5e 2f cd 3d f3 11 8e 3d 36 7c 1b bd ff 47 39 3d
       0.100188 0.06937017 -0.037960254 0.045234676
000180 68 a6 55 3d 82 f0 b4 bd 39 1f 85 3d 4b 7b a5 3d
       0.05216065 -0.08834936 0.06500096 0.08080157
000190 86 f5 9f 3d 22 1e be 3b 29 ca b9 3d cc d2 96 bc
       0.07810502 0.005801932 0.09071762 -0.018411063
0001a0 d1 ef 07 bc 15 83 7c bd 18 76 0b 3d f4 d4 4d 3d
       -0.008296923 -0.061648447 0.03404817 0.050251916
0001b0 72 0e cd bd 0f 88 ba 3d 3e 29 b9 3c 2c 71 74 3d
       -0.10012521 0.09107982 0.022602674 0.05967824
0001c0 97 aa 9e bd 40 f1 e6 bc 6b 09 91 bb 36 2a 88 bd
       -0.07747381 -0.028191209 -0.0044261715 -0.06648676
0001d0 f6 b0 5a 3d bc 49 68 bd 9b db dc 3d 48 b1 be bc
       0.05339142 -0.056710944 0.10784074 -0.023277894
0001e0 f0 85 76 bd bf b1 d1 bc 83 e2 56 bd 3a 32 78 bc
       -0.060186327 -0.025597451 -0.052462112 -0.015148694
0001f0 c3 d0 e4 3d 71 e9 e6 3c c4 7d f9 bd 37 04 91 bd
       0.11172631 0.028187485 -0.12182191 -0.07080882

hidden2.weight f4 [64, 128]
000000 ed 66 0a 3c 6f 52 03 3d ed 44 09 3c a5 38 99 3b
       0.008447391 0.032061037 0.00837825 0.004675942
000010 9b 92 13 bd e4 7a ea bb 52 58 94 bd 29 b5 3e bd
       -0.036028486 -0.007155763 -0.07243408 -0.046559487
000020 4c 8c 4f bc 40 d8 ab bd 0d 65 a2 bd 4d aa da bc
       -0.012667727 -0.08390856 -0.0792943 -0.026692534
000030 a2 3c 6c 3a 64 39 34 3d ea ad 58 3d 67 05 b1 3c
       0.00090117205 0.044000044 0.052900232 0.021609021
000040 d7 97 92 bd 04 27 0a bd 28 25 51 3d 84 e6 9b bd
       -0.071578674 -0.033728614 0.051060826 -0.07612327
000050 5a 05 ef bd 06 1e da 3c b9 00 5e bd 9f 7e d3 3b
       -0.116709426 0.026625644 -0.054199908 0.0064543034
000060 a1 d8 6d bc aa bd 98 3d 00 d9 a1 3d 94 53 7b bd
       -0.01451698 0.074580505 0.079027176 -0.061359003
000070 d8 49 bf bc e7 ce 91 bc 81 bc d7 3c 44 0f 8d bd
       -0.023350641 -0.017798854 0.026335003 -0.06887677
000080 3c de e2 3b 43 a1 91 3c 58 c7 4c bd 72 7c 54 3d
       0.006923465 0.01777709 -0.049994797 0.051876493
000090 41 55 d2 bd 79 46 d9 ba dd a6 a5 bc 2f a4 a3 3d
       -0.10270167 -0.0016576789 -0.020221168 0.079903
0000a0 ed ea 95 3d b0 8f 9e 3d ae d0 f4 3c c9 e2 9f 3d
       0.07320199 0.0774225 0.029884662 0.07806928
0000b0 7e f9 d4 bd 05 36 55 3d c2 4d a0 bc 59 f1 9c 3d
       -0.10399149 0.05205347 -0.019568328 0.07663221
0000c0 d1 aa 8e bd 61 a1 0f bd 2b 7b 05 bd 95 f3 25 3d
       -0.069661744 -0.035066012 -0.032588165 0.0405155
0000d0 1e 18 8c 3b 05 51 07 bd 0c 64 4d bd b0 52 78 3c
       0.004275336 -0.03303625 -0.05014424 0.015156433
0000e0 c6 05 37 3d e2 e3 c2 3c 28 64 5d 3d 39 7b 7f 3d
       0.04468324 0.023790304 0.054050595 0.062373374
0000f0 fd eb 83 3d 10 99 d3 3c 2a 00 63 3d 82 1e 16 3d
       0.064414956 0.025829822 0.05542008 0.03665019
000100 b2 7a 50 3d f5 7f 69 3d 54 af 87 bd 0c 4c 1c bd
       0.05089826 0.057006795 -0.06625238 -0.03815846
000110 ca f1 29 3d 41 51 b1 3d 2b 76 ed 3d 31 1b 89 3d
       0.041490354 0.08658076 0.115948044 0.066946395
000120 4f 14 9b 3d 00 f4 a1 39 90 2c 94 3c a0 1b 3b bd
       0.07572233 0.00030890107 0.018087655 -0.045680642
000130 ad 37 ab bb c2 b2 5a 3d ff 57 4d 3d e3 ff 62 3d
       -0.005225143 0.053393133 0.050132748 0.055419814
000140 c8 26 97 bd 5d 19 a6 3a 1b 52 20 3c 5d 33 8a ba
       -0.07380444 0.0012672354 0.0097852005 -0.0010543872
000150 0e 3e 8f bd aa a1 0f 3d bb 6c f9 3c a9 9d a1 3d
       -0.06994258 0.035066284 0.030447355 0.078913994
000160 98 8f 3c bc 02 f0 db 3c 57 a2 21 bd 51 82 b9 3c
       -0.011508845 0.026847843 -0.03946146 0.022645148
000170 09 9a 1c bd 59 24 9d bc 43 73 5a bd 20 bf d1 bc
       -0.038232837 -0.019182371 -0.05333258 -0.02560383
000180 90 09 9c 3c 5d ea 63 bd eb 60 e4 bc 50 a9 84 3d
       0.019047529 -0.055643428 -0.027878245 0.06477606
000190 78 29 37 3d e2 7d 97 3d 8f d9 94 bd 42 04 1b bd
       0.044717282 0.07397057 -0.072680585 -0.037845857
0001a0 1d 02 9c 3d 59 cd 67 bc e6 d8 b3 bd 19 10 8e bd
       0.076175906 -0.01414808 -0.087816045 -0.06936664
0001b0 3a f5 98 bd 13 79 cc bc 48 7e 03 bd 24 68 88 3c
       -0.07468648 -0.024960076 -0.032102853 0.01665122
0001c0 a1 dc 10 bd 44 81 e4 3c 21 64 5a 3c f3 25 7e bc
       -0.035366658 0.02789367 0.013329537 -0.0155119775
0001d0 5a bb f8 bb d6 d2 20 3d c5 42 a9 3d 60 97 bf 3c
       -0.0075906934 0.03926357 0.082646884 0.02338761
0001e0 81 62 3e bb 8c 88 5b 3d d4 8a 72 3c d8 3c 42 3d
       -0.0029050412 0.053597018 0.014803607 0.047421306
0001f0 da 41 e8 bd bd c9 1e bb a5 07 17 3d 19 6e 80 3d
       -0.11340685 -0.0024229132 0.036872525 0.062709995
000200 ae 38 ed bc fb a8 0a bd f7 09 b4 bb a6 6d ba 3c
       -0.028957691 -0.03385256 -0.005494352 0.022757363
000210 80 00 f2 3a 05 99 ff 3c 82 93 49 bd f6 4e de bc
       0.0018463284 0.031200895 -0.04921294 -0.02713726
000220 b0 81 c8 bc 81 cb 89 3d 7e 8f 3e 3d f7 5a 0a 3b
       -0.024475902 0.067282684 0.046523564 0.0021111348
000230 a4 1a 66 bc 75 9b 3b bd 0c c0 dd bc b3 1b c2 ba
       -0.014044438 -0.045802552 -0.027069114 -0.001480928
000240 aa 78 8f 3d b6 22 77 bd 1a 31 f7 3c a0 e1 b0 3c
       0.07005437 -0.060335837 0.03017478 0.021591961
000250 b6 dd 78 3d 56 11 cd 3c 5e bc a5 bd 89 5f c5 bc
       0.060758315 0.02503268 -0.08092569 -0.024093406
000260 a8 f5 67 bd 06 e7 f7 3c 30 6e b7 3d bc 0f 13 3e
       -0.05663076 0.030261528 0.089565635 0.14361471
000270 9f ca a7 3d e6 98 bf bc 89 60 86 3d d3 08 fa bc
       0.08192944 -0.023388337 0.06561381 -0.030521786
000280 b2 ef bd 3d 34 1f b7 bc 50 5f 2b 3d 21 de 8c 3d
       0.09274234 -0.022353746 0.041838944 0.06878305
000290 43 4a 03 3d 6e 35 98 bd 64 c7 7b bc 0e b3 23 3d
       0.032053243 -0.07432066 -0.015367363 0.03996568
0002a0 34 55 d3 bc 50 45 4c bd 7f 29 07 3d b4 0b 6d bd
       -0.025797464 -0.04987079 0.032998558 -0.05787249
0002b0 02 5d c3 bd ef 66 32 3c 41 19 27 bd 9f c7 f9 bc
       -0.09539224 0.010888799 -0.04079557 -0.030490695
0002c0 4d d0 2a bd bd 3b 1f bd 56 09 9f bd 7a 13 99 bd
       -0.041702557 -0.03887533 -0.077654526 -0.07474418
0002d0 88 a1 33 bc 2b e7 9e 3d 67 31 6f bd a3 77 89 bd
       -0.010963805 0.077589355 -0.058396723 -0.06712272
0002e0 44 3f ce 3c 52 38 69 3c d9 c7 4c 3d 70 3e f4 bb
       0.025176652 0.014234619 0.049995277 -0.007453732
0002f0 4f 12 81 3d 35 12 90 bd fc 81 00 39 dd 95 d6 3d
       0.0630232 -0.07034723 0.00012255454 0.10477803
000300 89 c7 6b bd aa 36 2b be 87 b6 97 bc e4 05 e4 3c
       -0.05756334 -0.16720071 -0.018519653 0.02783484
000310 f6 a4 29 3d 51 3e 67 bd f4 5b 57 3d 9a 9d b4 bd
       0.041417085 -0.056455914 0.052577928 -0.088191226
000320 6f b8 a7 bd 7e d9 a2 bd 6d 1c e3 bb 25 60 73 bd
       -0.08189475 -0.079516396 -0.006930879 -0.059417862
000330 ab 32 ca bc 22 65 6c 3d d0 8a bc bc 2d 43 20 3d
       -0.024682363 0.057713635 -0.02301541 0.039126564
000340 7a 77 7d 3d 65 6a 4f 3d df 66 f4 3c 52 7d 84 bd
       0.06188152 0.050638575 0.029834209 -0.064692155
000350 24 1a 25 3a 12 4b 47 3d 53 a8 07 bd 3a 3e 2b 3d
       0.0006298146 0.048655577 -0.03311951 0.04180739
000360 46 72 0e 3b 76 cf 41 bc f8 9b cf 3c 00 24 3d 3d
       0.0021735593 -0.011829248 0.025342926 0.04617691
000370 f8 04 c7 3c 65 57 8b 3d 5a ab 3a 3d ce 16 8f 3d
       0.024294361 0.068037786 0.04557357 0.069867715
000380 42 f2 94 bd 25 10 8d 3d b5 b6 85 bd 50 77 24 bc
       -0.072727695 0.06887845 -0.06528989 -0.010038212
000390 d8 40 c6 bd b4 11 f3 3c 68 21 d3 bd 20 c2 35 bb
       -0.09680337 0.029671527 -0.10309106 -0.0027734116
0003a0 bb 4c c2 3d 95 29 48 3c 0c 59 a5 bd bd 6f a7 3d
       0.094872914 0.012216945 -0.08073625 0.08175609
0003b0 4b b6 ae 3d 61 3b 2e 3d d1 42 38 3d 23 39 92 bd
       0.085308634 0.042537097 0.044985596 -0.07139804
0003c0 e5 ae 5f bc fa 1b 51 3d 27 d8 b8 bb 08 a7 7b 3d
       -0.013652538 0.05105207 -0.0056410017 0.06143859
0003d0 b6 2c 27 3d 19 6d 7c bd b7 f6 2e bd cf 0b 6a bd
       0.040814124 -0.06162748 -0.042715754 -0.057140168
0003e0 6f 5f 9a bd 0d 1a 0e bb a2 9c a4 bd 36 76 2d 3d
       -0.07537734 -0.0021683008 -0.08037688 0.042349063
0003f0 11 89 93 bd 3c 84 e7 bc 6f d8 a8 bd 0b 6e c6 bd
       -0.07203878 -0.028261296 -0.082444064 -0.09688958

hidden2.bias f4 [64]
000000 1a 61 86 bb 7d 3d c8 bd 22 87 f4 bc 28 87 5b 3c
       -0.004100931 -0.09777353 -0.029849593 0.013398923
000010 43 9e 0c 3e d1 88 ba bd fd 0b a5 bc d8 a5 b1 bc
       0.13732247 -0.09108127 -0.020147318 -0.021685526
000020 48 90 64 3c e5 28 62 bd ae 71 8a 3d bd 95 c7 bd
       0.013950415 -0.05521478 0.06759964 -0.09745357
000030 43 5e 44 3d 65 98 ad 3d 42 91 cb 3d 99 5b 0d 3d
       0.047941457 0.084763326 0.09939815 0.034511182
000040 56 90 30 bd a7 9b 8c 3d 1d 46 dd bd d3 10 09 bc
       -0.0431064 0.06865626 -0.10804389 -0.008365828
000050 89 7d a7 bd 97 cb 3e bc e4 2f 7e 3d de 2f a8 bd
       -0.08178241 -0.011645219 0.06205739 -0.08212255
000060 1d 10 48 bd e5 bb 72 3d fc 18 e4 bd e6 3a 08 be
       -0.04884349 0.05926122 -0.11137578 -0.13303718
000070 c1 02 5b 3d 57 81 40 bd 5d 5d 85 bc 55 5d 1b 3c
       0.053469423 -0.046998348 -0.01627987 0.009482701
000080 b0 f9 21 ba db d0 f1 3c 05 26 05 3c 5e 63 a6 3d
       -0.0006178869 0.029518535 0.00812674 0.081244215
000090 5b 78 53 bd 37 4c da 3b bf d2 5b 3e 9f 62 30 3a
       -0.05162845 0.0066619175 0.21467112 0.0006728563
0000a0 09 7f aa bd 03 d9 85 bd c4 6d 66 3d a6 a3 0a be
       -0.08325011 -0.06535532 0.056257024 -0.1353899
0000b0 93 a4 ee 3d 99 37 dc bd 74 d2 44 3c f9 30 38 3d
       0.11652484 -0.10752792 0.012013067 0.04496858
0000c0 12 98 d3 bd b0 05 99 3b 09 14 d9 bd 61 37 3f 3d
       -0.103317395 0.0046698675 -0.105995245 0.046683673
0000d0 3a e7 20 bd e3 16 a0 3d 34 7c d7 bd ba 7b 2b 3d
       -0.039283015 0.07816865 -0.10521737 0.04186604
0000e0 e1 34 89 3d 40 45 b4 bc a7 2c ab bc ba 51 68 bb
       0.06699539 -0.022005677 -0.020895315 -0.0035449103
0000f0 9e c0 b0 bd 4b 7c 1d bd 72 4d 99 bd 5a 1f 11 be
       -0.08630489 -0.038448613 -0.07485475 -0.14172116

output.weight f4 [13, 64]
000000 03 ea 81 bd 57 4f f0 3d 0c ea b3 3d 5f 08 10 be
       -0.06343462 0.11733883 0.08784875 -0.14065693
000010 a0 31 01 be 49 2d f1 3d 18 7a 81 bd 0d 81 9c 3d
       -0.12616587 0.117762156 -0.06322116 0.07641802
000020 1b 96 28 bd 9f 3c 12 3e 68 ca 76 bc 7e 6d e7 3c
       -0.041158777 0.14280938 -0.015062906 0.028250452
000030 d8 86 1c 3d c7 6e e2 bd 8a 41 1b be 36 79 04 bb
       0.038214535 -0.11056285 -0.1516172 -0.002021385
000040 d1 42 1c 3d 2b f7 eb ba 6c 2a bb bd 14 97 c1 3d
       0.03814966 -0.0018002739 -0.09138951 0.09452644
000050 f8 aa c4 bd e4 67 3b be 43 c4 21 bd ee f1 32 3c
       -0.09602922 -0.1830135 -0.03949381 0.010921938
000060 2e da c4 3d 3f ab 68 bc 17 05 96 3b e8 8a b8 3d
       0.09611927 -0.0142009845 0.0045782435 0.09010869
000070 aa b4 01 3d 6d c6 8e 3d c6 a4 ab bd a4 19 45 3b
       0.031666435 0.069714405 -0.083810374 0.0030075097
000080 fc 6c d0 bd d8 b8 10 be d2 68 f1 3c f6 6f c6 bc
       -0.10177037 -0.14133012 0.029468928 -0.024223309
000090 1a 76 a8 bd 49 eb ba 3d 01 09 01 be 56 96 89 3d
       -0.08225651 0.09126908 -0.12601091 0.067181274
0000a0 9c b2 09 3d ea c6 f1 bd 92 37 0a 3d 64 ff d6 bd
       0.0336176 -0.11805518 0.033744402 -0.10497931
0000b0 c3 c5 16 be 50 ad a8 3d 18 55 76 3d 88 81 93 3d
       -0.14723878 0.08236182 0.060139745 0.072024405
0000c0 95 41 ca bd dd 9e 3c 3c b6 cc a7 3d 61 41 7a bd
       -0.0987579 0.011512485 0.081933424 -0.061097506
0000d0 42 8f 05 be f9 24 34 be a7 31 9b 3c 2e 9b cd 3d
       -0.1304293 -0.17592229 0.018944575 0.10039364
0000e0 40 15 7e 3d 2d ab 92 3d 54 7f 1b 3e 3d 9d 97 3d
       0.062031984 0.071615554 0.1518529 0.07403038
0000f0 09 5d c3 bd 4f 37 dc 3d 7f 42 61 3d 0b ed ae 3d
       -0.095392294 0.10752737 0.054995056 0.08541306
000100 51 dc 88 3d 5f 9e 6f 3d fc b0 ac 3d 3a bb 09 be
       0.06682647 0.058500644 0.084321946 -0.13450328
000110 63 cd 35 3d 79 11 29 3e 5b e9 ee 3d eb e5 06 3d
       0.044385325 0.16510572 0.11665603 0.03293411
000120 1a 22 1d be 94 89 60 be e0 10 cd bd 9c 59 8e 3c
       -0.1534504 -0.21927482 -0.10012984 0.017376713
000130 74 6e f2 3c 40 54 90 bd 0e d0 f0 3c 4e 62 89 bc
       0.029593684 -0.070473194 0.029396083 -0.016770508
000140 06 ee c5 bd fc e9 7b bc 54 b8 af 3d e5 a6 c6 3b
       -0.0966454 -0.01537561 0.0858008 0.006062376
000150 e2 8c 59 be b8 26 03 3e 92 97 ca 3d 39 74 98 bd
       -0.21245149 0.12807739 0.09892191 -0.07444043
000160 88 ca 5a 3c 8c 98 05 bd 3f 29 13 3d f9 2d a1 bd
       0.013353951 -0.032616183 0.035928007 -0.07870097
000170 1f 67 07 3c 90 6d 98 3d 73 41 d2 3c b2 ca a3 3b
       0.008264332 0.074427724 0.025665974 0.0049985284
000180 27 9f 90 3d c8 55 2b bd c0 7c 34 be 99 cd c8 3c
       0.07061606 -0.041829854 -0.17625713 0.0245121
000190 13 df 83 bc 12 ab 0b 3d da 8d 18 bd 3e 1f ef 3c
       -0.016097581 0.034098692 -0.037244655 0.029189702
0001a0 9a e4 09 bc d7 97 23 3b 78 d2 d5 bd 14 7d d7 3d
       -0.008416319 0.002496233 -0.10440534 0.10521904
0001b0 7c 60 9b 3c 17 c6 da 3d 46 e4 0d 3d 7d ba cd bd
       0.018966906 0.10682314 0.034641527 -0.100453354
0001c0 27 d2 72 be 72 9b ae 3c e3 0e 43 bd b0 90 38 3d
       -0.2371298 0.021314356 -0.04762162 0.04505986
0001d0 a3 6d d7 bd 3d 74 78 bd 24 0f 84 ba 65 fd 09 be
       -0.105189584 -0.06065773 -0.0010075313 -0.13475569
0001e0 f6 c4 13 3d 72 59 36 3c 20 eb b4 bd 59 88 1b bd
       0.03607651 0.011129724 -0.08833909 -0.037971828
0001f0 e3 e2 9c 3d 04 e3 ad 3d d9 c2 8c bd 39 8b b9 bd
       0.07660463 0.084905654 -0.06873102 -0.09059758
000200 58 d2 81 bd 13 9e a4 bd 64 8d 91 bd 45 21 bb 3d
       -0.06338948 -0.08037963 -0.07107046 0.09137205
000210 57 cb dd 3d 2f 2b 9a 3d 29 68 66 bd 1d 44 1a be
       0.108297996 0.07527768 -0.05625168 -0.15065046
000220 21 66 83 be 39 3b ec bd 8b 27 35 bd 34 b9 8a 3d
       -0.25663856 -0.11534733 -0.044227164 0.06773606
000230 37 03 b1 3d f7 bb ab bd a3 f1 d8 bd da 54 04 be
       0.08643191 -0.08385461 -0.105929635 -0.12922993
000240 ae 2b fb 3d 4d 31 f2 3d 52 bf 2b 3e f5 67 96 3d
       0.122641906 0.1182581 0.16772202 0.07344047
000250 c3 99 d2 3d b5 c7 ce bd df b4 73 3d a6 e1 09 3d
       0.10283234 -0.10096685 0.059498664 0.03366246
000260 eb 26 07 be 72 a7 73 be 8e c1 86 bd f6 f4 82 3d
       -0.1319844 -0.23794344 -0.065798864 0.06394379
000270 0f e5 aa 3d 50 50 d0 bd 3a 92 a2 bd 18 68 bd bc
       0.08344471 -0.101715684 -0.07938047 -0.023120925
000280 94 61 b0 bc 13 df 26 be 5c 4d 92 3c a6 b5 d2 bd
       -0.021530904 -0.16296034 0.017859153 -0.10288553
000290 25 08 8e bd 19 0b 87 3d cc fb 13 bd 6f 92 29 be
       -0.06935147 0.065939136 -0.036128804 -0.16559766
0002a0 d4 81 63 3d c5 94 9b 3d ce 37 ad bd cd 2a f0 bc
       0.055543736 0.07596735 -0.084579095 -0.029317284
0002b0 99 d7 d4 3c aa 83 6e 3c 6f a7 cf ba e9 97 1d 3c
       0.025981711 0.014557758 -0.0015842746 0.009618738
0002c0 5c 9d 2a be f5 2c c5 3d d1 af 09 be a1 4c 1e 3e
       -0.1666159 0.096277155 -0.13445975 0.15458919
0002d0 b9 4d d4 bd 3a ef 89 bd b4 d1 a7 3c 29 f7 a6 3d
       -0.10366387 -0.06735082 0.020485736 0.08152611
0002e0 76 64 b1 bc 10 78 ed bc 55 9b a1 bd 89 ee 22 bd
       -0.021654349 -0.028987914 -0.07890955 -0.039778266
0002f0 bd d2 c9 bb fd e9 bc bd d5 c3 ed bd 9b 81 0e bd
       -0.006159155 -0.09224317 -0.116096176 -0.03479157
000300 dd e9 19 3e d3 b5 28 bd 95 ba 87 bd 7b 03 c9 3d
       0.15030618 -0.041189026 -0.066273846 0.09815117
000310 ce ab 87 3d 0d 5a 4f 3c 3c 11 5b be ee 62 13 be
       0.06624566 0.012655747 -0.21393293 -0.14393207
000320 d3 7d f3 bd a5 c8 a5 bb 70 7c b2 3c 9b 0e 52 bd
       -0.118892334 -0.005059319 0.021787852 -0.05128346
000330 4d c3 ea 3d c0 fa 88 3d 5a 6b 6e bc 3f ef 85 3d
       0.11463032 0.06688452 -0.014551962 0.06539773
000340 f2 77 52 3d 49 a2 65 bc 9f b9 2e be f6 2d 92 bd
       0.05138392 -0.014015743 -0.17062996 -0.071376726
000350 af 8b 8f bd 03 f7 ff bd 9d cb 01 3d 7e 28 c5 3d
       -0.070090644 -0.124982856 0.03168832 0.09626864
000360 ea d8 c0 bd 34 43 b5 bd 97 7d 0d bd c5 07 8a bc
       -0.09416373 -0.088507086 -0.0345436 -0.016849408
000370 37 e5 2a bc 92 2a ea 3d 39 a5 99 bd 7c 1f bd bc
       -0.010430626 0.11433901 -0.07502217 -0.023086302
000380 ec 8a b7 3d 74 9d a6 bd 4f 32 c2 be 33 1a 0a be
       0.08962044 -0.081355006 -0.37929007 -0.13486557
000390 2d d3 46 bd 86 40 53 bb c9 94 08 be 4b 65 3a bd
       -0.048541237 -0.0032234504 -0.13338007 -0.045506757
0003a0 08 ff 3b 3d a0 aa 5b 3d 15 bf dc bc 7c ae 72 bd
       0.045897514 0.053629518 -0.026946584 -0.059248433
0003b0 1c 59 9d 3d b7 ec 79 bd fc a9 9a 3d 84 6c b3 bc
       0.07683012 -0.061016764 0.07551953 -0.02190233
0003c0 34 c9 d9 bd ea a2 92 bd a1 ec a6 bd d3 28 62 bd
       -0.106340796 -0.0715998 -0.08150602 -0.055214714
0003d0 5f 6f 7d 3d 0b e7 f1 3a c3 19 8c 3d a7 75 11 3e
       0.06187379 0.0018455697 0.06840851 0.14205037
0003e0 23 7d cf 3d 55 d0 11 bd 34 68 00 bd ed cb e8 bd
       0.1013129 -0.03559907 -0.031349376 -0.11367021
0003f0 00 c7 9f bc d6 27 bf 3d 8f 23 95 3d 53 7b 1a 39
       -0.01950407 0.0933377 0.07282173 0.00014732526

output.bias f4 [13]
000000 67 9c dd 3d 8e a0 df bd b2 69 b7 bd a7 2e 08 3e
       0.10820847 -0.10919295 -0.08955707 0.13299046
000010 f3 84 89 3d 5d be 41 bd 89 78 01 3c 54 8c f4 bd
       0.06714811 -0.047300685 0.007902273 -0.11940828
000020 62 9f d7 3d 20 53 03 3b b0 e8 3a be 6b bc fa bc
       0.10528447 0.002003856 -0.18252826 -0.030607423
000030 3e 37 a3 3c
       0.019923802
